
Training model:
==========================================================================================
Layer (type:depth-idx)                   Output Shape              Param #
==========================================================================================
CNNVideoClassifier                       [32, 2]                   --
├─Conv3d: 1-1                            [32, 16, 10, 256, 256]    1,312
├─BatchNorm3d: 1-2                       [32, 16, 10, 256, 256]    32
├─ReLU: 1-3                              [32, 16, 10, 256, 256]    --
├─MaxPool3d: 1-4                         [32, 16, 10, 128, 128]    --
├─Conv3d: 1-5                            [32, 32, 10, 128, 128]    13,856
├─BatchNorm3d: 1-6                       [32, 32, 10, 128, 128]    64
├─ReLU: 1-7                              [32, 32, 10, 128, 128]    --
├─MaxPool3d: 1-8                         [32, 32, 10, 64, 64]      --
├─Conv3d: 1-9                            [32, 64, 10, 64, 64]      55,360
├─BatchNorm3d: 1-10                      [32, 64, 10, 64, 64]      128
├─ReLU: 1-11                             [32, 64, 10, 64, 64]      --
├─MaxPool3d: 1-12                        [32, 64, 10, 32, 32]      --
├─Linear: 1-13                           [32, 512]                 335,544,832
├─ReLU: 1-14                             [32, 512]                 --
├─Linear: 1-15                           [32, 2]                   1,026
==========================================================================================
Total params: 335,616,610
Trainable params: 335,616,610
Non-trainable params: 0
Total mult-adds (G): 183.46
==========================================================================================
Input size (MB): 251.66
Forward/backward pass size (MB): 9395.37
Params size (MB): 1342.47
Estimated Total Size (MB): 10989.50
…
