
Training model:
==========================================================================================
Layer (type:depth-idx)                   Output Shape              Param #
==========================================================================================
CNNVideoClassifier                       [640, 2]                  --
├─Conv3d: 1-1                            [32, 32, 10, 256, 256]    2,624
├─BatchNorm3d: 1-2                       [32, 32, 10, 256, 256]    64
├─ReLU: 1-3                              [32, 32, 10, 256, 256]    --
├─MaxPool3d: 1-4                         [32, 32, 10, 128, 128]    --
├─Conv3d: 1-5                            [32, 64, 10, 128, 128]    55,360
├─BatchNorm3d: 1-6                       [32, 64, 10, 128, 128]    128
├─ReLU: 1-7                              [32, 64, 10, 128, 128]    --
├─MaxPool3d: 1-8                         [32, 64, 10, 64, 64]      --
├─Conv3d: 1-9                            [32, 128, 10, 64, 64]     221,312
├─BatchNorm3d: 1-10                      [32, 128, 10, 64, 64]     256
├─ReLU: 1-11                             [32, 128, 10, 64, 64]     --
├─MaxPool3d: 1-12                        [32, 128, 10, 32, 32]     --
├─Conv3d: 1-13                           [32, 256, 10, 32, 32]     884,992
├─BatchNorm3d: 1-14                      [32, 256, 10, 32, 32]     512
├─ReLU: 1-15                             [32, 256, 10, 32, 32]     --
├─MaxPool3d: 1-16                        [32, 256, 10, 16, 16]     --
├─Conv3d: 1-17                           [32, 256, 10, 16, 16]     1,769,728
├─BatchNorm3d: 1-18                      [32, 256, 10, 16, 16]     512
├─ReLU: 1-19                             [32, 256, 10, 16, 16]     --
├─MaxPool3d: 1-20                        [32, 256, 10, 8, 8]       --
├─Dropout: 1-21                          [640, 8192]               --
├─Linear: 1-22                           [640, 2048]               16,779,264
├─ReLU: 1-23                             [640, 2048]               --
├─Dropout: 1-24                          [640, 2048]               --
├─Linear: 1-25                           [640, 2048]               4,196,352
├─ReLU: 1-26                             [640, 2048]               --
├─Linear: 1-27                           [640, 2]                  4,098
==========================================================================================
Total params: 23,915,202
Trainable params: 23,915,202
Non-trainable params: 0
Total mult-adds (T): 1.08
==========================================================================================
Input size (MB): 251.66
Forward/backward pass size (MB): 20489.19
Params size (MB): 95.66
Estimated Total Size (MB): 20836.50
…
