
Training model:
==========================================================================================
Layer (type:depth-idx)                   Output Shape              Param #
==========================================================================================
CNNVideoClassifier                       [32, 1]                   55,488
├─Conv3d: 1-1                            [32, 16, 3, 256, 256]     4,336
├─BatchNorm3d: 1-2                       [32, 16, 3, 256, 256]     32
├─ReLU: 1-3                              [32, 16, 3, 256, 256]     --
├─MaxPool3d: 1-4                         [32, 16, 3, 128, 128]     --
├─Conv3d: 1-5                            [32, 32, 3, 128, 128]     13,856
├─BatchNorm3d: 1-6                       [32, 32, 3, 128, 128]     64
├─ReLU: 1-7                              [32, 32, 3, 128, 128]     --
├─MaxPool3d: 1-8                         [32, 32, 3, 64, 64]       --
├─Linear: 1-9                            [32, 512]                 201,327,104
├─ReLU: 1-10                             [32, 512]                 --
├─Linear: 1-11                           [32, 1]                   513
==========================================================================================
Total params: 201,401,393
Trainable params: 201,401,393
Non-trainable params: 0
Total mult-adds (G): 55.52
==========================================================================================
Input size (MB): 251.66
Forward/backward pass size (MB): 2416.05
Params size (MB): 805.38
Estimated Total Size (MB): 3473.09
…
